{"class_name": "Functional", "config": {"name": "sol-rnn-infer", "layers": [{"class_name": "InputLayer", "config": {"batch_input_shape": [null, null], "dtype": "float32", "sparse": false, "ragged": false, "name": "input_29"}, "name": "input_29", "inbound_nodes": []}, {"class_name": "Embedding", "config": {"name": "embedding_18", "trainable": true, "batch_input_shape": [null, null], "dtype": "float32", "input_dim": 273, "output_dim": 64, "embeddings_initializer": {"class_name": "RandomUniform", "config": {"minval": -0.05, "maxval": 0.05, "seed": null}}, "embeddings_regularizer": null, "activity_regularizer": null, "embeddings_constraint": null, "mask_zero": true, "input_length": null}, "name": "embedding_18", "inbound_nodes": [[["input_29", 0, 0, {}]]]}, {"class_name": "Bidirectional", "config": {"name": "bidirectional_36", "trainable": true, "dtype": "float32", "layer": {"class_name": "LSTM", "config": {"name": "lstm_36", "trainable": true, "dtype": "float32", "return_sequences": true, "return_state": false, "go_backwards": false, "stateful": false, "unroll": false, "time_major": false, "units": 64, "activation": "tanh", "recurrent_activation": "sigmoid", "use_bias": true, "kernel_initializer": {"class_name": "GlorotUniform", "config": {"seed": null}, "shared_object_id": 3}, "recurrent_initializer": {"class_name": "Orthogonal", "config": {"gain": 1.0, "seed": null}, "shared_object_id": 4}, "bias_initializer": {"class_name": "Zeros", "config": {}, "shared_object_id": 5}, "unit_forget_bias": true, "kernel_regularizer": null, "recurrent_regularizer": null, "bias_regularizer": null, "activity_regularizer": null, "kernel_constraint": null, "recurrent_constraint": null, "bias_constraint": null, "dropout": 0.0, "recurrent_dropout": 0.0, "implementation": 2}}, "merge_mode": "concat"}, "name": "bidirectional_36", "inbound_nodes": [[["embedding_18", 0, 0, {}]]]}, {"class_name": "Bidirectional", "config": {"name": "bidirectional_37", "trainable": true, "dtype": "float32", "layer": {"class_name": "LSTM", "config": {"name": "lstm_37", "trainable": true, "dtype": "float32", "return_sequences": false, "return_state": false, "go_backwards": false, "stateful": false, "unroll": false, "time_major": false, "units": 64, "activation": "tanh", "recurrent_activation": "sigmoid", "use_bias": true, "kernel_initializer": {"class_name": "GlorotUniform", "config": {"seed": null}, "shared_object_id": 9}, "recurrent_initializer": {"class_name": "Orthogonal", "config": {"gain": 1.0, "seed": null}, "shared_object_id": 10}, "bias_initializer": {"class_name": "Zeros", "config": {}, "shared_object_id": 11}, "unit_forget_bias": true, "kernel_regularizer": null, "recurrent_regularizer": null, "bias_regularizer": null, "activity_regularizer": null, "kernel_constraint": null, "recurrent_constraint": null, "bias_constraint": null, "dropout": 0.0, "recurrent_dropout": 0.0, "implementation": 2}}, "merge_mode": "concat"}, "name": "bidirectional_37", "inbound_nodes": [[["bidirectional_36", 0, 0, {}]]]}, {"class_name": "LayerNormalization", "config": {"name": "layer_normalization_18", "trainable": true, "dtype": "float32", "axis": [1], "epsilon": 0.001, "center": true, "scale": true, "beta_initializer": {"class_name": "Zeros", "config": {}}, "gamma_initializer": {"class_name": "Ones", "config": {}}, "beta_regularizer": null, "gamma_regularizer": null, "beta_constraint": null, "gamma_constraint": null}, "name": "layer_normalization_18", "inbound_nodes": [[["bidirectional_37", 0, 0, {}]]]}, {"class_name": "Dense", "config": {"name": "dense_72", "trainable": true, "dtype": "float32", "units": 32, "activation": "swish", "use_bias": true, "kernel_initializer": {"class_name": "GlorotUniform", "config": {"seed": null}}, "bias_initializer": {"class_name": "Zeros", "config": {}}, "kernel_regularizer": null, "bias_regularizer": null, "activity_regularizer": null, "kernel_constraint": null, "bias_constraint": null}, "name": "dense_72", "inbound_nodes": [[["layer_normalization_18", 0, 0, {}]]]}, {"class_name": "Dense", "config": {"name": "dense_73", "trainable": true, "dtype": "float32", "units": 16, "activation": "swish", "use_bias": true, "kernel_initializer": {"class_name": "GlorotUniform", "config": {"seed": null}}, "bias_initializer": {"class_name": "Zeros", "config": {}}, "kernel_regularizer": null, "bias_regularizer": null, "activity_regularizer": null, "kernel_constraint": null, "bias_constraint": null}, "name": "dense_73", "inbound_nodes": [[["dense_72", 0, 0, {}]]]}, {"class_name": "Dense", "config": {"name": "dense_74", "trainable": true, "dtype": "float32", "units": 1, "activation": "linear", "use_bias": true, "kernel_initializer": {"class_name": "GlorotUniform", "config": {"seed": null}}, "bias_initializer": {"class_name": "Zeros", "config": {}}, "kernel_regularizer": null, "bias_regularizer": null, "activity_regularizer": null, "kernel_constraint": null, "bias_constraint": null}, "name": "dense_74", "inbound_nodes": [[["dense_73", 0, 0, {}]]]}, {"class_name": "Dense", "config": {"name": "dense_75", "trainable": true, "dtype": "float32", "units": 1, "activation": "softplus", "use_bias": true, "kernel_initializer": {"class_name": "GlorotUniform", "config": {"seed": null}}, "bias_initializer": {"class_name": "Zeros", "config": {}}, "kernel_regularizer": null, "bias_regularizer": null, "activity_regularizer": null, "kernel_constraint": null, "bias_constraint": null}, "name": "dense_75", "inbound_nodes": [[["dense_73", 0, 0, {}]]]}, {"class_name": "TFOpLambda", "config": {"name": "tf.stack_18", "trainable": true, "dtype": "float32", "function": "stack"}, "name": "tf.stack_18", "inbound_nodes": [[["dense_74", 0, 0, {"axis": -1}], ["dense_75", 0, 0, {"axis": -1}]]]}, {"class_name": "TFOpLambda", "config": {"name": "tf.compat.v1.squeeze_18", "trainable": true, "dtype": "float32", "function": "compat.v1.squeeze"}, "name": "tf.compat.v1.squeeze_18", "inbound_nodes": [["tf.stack_18", 0, 0, {"axis": null, "name": null}]]}], "input_layers": [["input_29", 0, 0]], "output_layers": [["tf.compat.v1.squeeze_18", 0, 0]]}, "keras_version": "2.10.0", "backend": "tensorflow"}